<?xml version="1.0"?>
<net name="TensorFlow_Frontend_IR" version="11">
	<layers>
		<layer id="0" name="args:0" type="Parameter" version="opset1">
			<data shape="?,48,14,10" element_type="f32" />
			<output>
				<port id="0" precision="FP32" names="args:0">
					<dim>-1</dim>
					<dim>48</dim>
					<dim>14</dim>
					<dim>10</dim>
				</port>
			</output>
		</layer>
		<layer id="1" name="Constant_4071" type="Const" version="opset1">
			<data element_type="i64" shape="4" offset="0" size="32" />
			<output>
				<port id="0" precision="I64">
					<dim>4</dim>
				</port>
			</output>
		</layer>
		<layer id="2" name="Transpose_4072" type="Transpose" version="opset1">
			<input>
				<port id="0" precision="FP32">
					<dim>-1</dim>
					<dim>48</dim>
					<dim>14</dim>
					<dim>10</dim>
				</port>
				<port id="1" precision="I64">
					<dim>4</dim>
				</port>
			</input>
			<output>
				<port id="2" precision="FP32">
					<dim>-1</dim>
					<dim>10</dim>
					<dim>48</dim>
					<dim>14</dim>
				</port>
			</output>
		</layer>
		<layer id="3" name="Transpose_4076_compressed" type="Const" version="opset1">
			<data element_type="f16" shape="10, 1, 1, 3, 3" offset="32" size="180" />
			<output>
				<port id="0" precision="FP16">
					<dim>10</dim>
					<dim>1</dim>
					<dim>1</dim>
					<dim>3</dim>
					<dim>3</dim>
				</port>
			</output>
		</layer>
		<layer id="4" name="Transpose_4076" type="Convert" version="opset1">
			<data destination_type="f32" />
			<rt_info>
				<attribute name="decompression" version="0" />
			</rt_info>
			<input>
				<port id="0" precision="FP16">
					<dim>10</dim>
					<dim>1</dim>
					<dim>1</dim>
					<dim>3</dim>
					<dim>3</dim>
				</port>
			</input>
			<output>
				<port id="1" precision="FP32">
					<dim>10</dim>
					<dim>1</dim>
					<dim>1</dim>
					<dim>3</dim>
					<dim>3</dim>
				</port>
			</output>
		</layer>
		<layer id="5" name="GroupConvolution_4077" type="GroupConvolution" version="opset1">
			<data strides="1, 1" pads_begin="0, 0" pads_end="0, 0" dilations="1, 1" auto_pad="same_upper" />
			<input>
				<port id="0" precision="FP32">
					<dim>-1</dim>
					<dim>10</dim>
					<dim>48</dim>
					<dim>14</dim>
				</port>
				<port id="1" precision="FP32">
					<dim>10</dim>
					<dim>1</dim>
					<dim>1</dim>
					<dim>3</dim>
					<dim>3</dim>
				</port>
			</input>
			<output>
				<port id="2" precision="FP32">
					<dim>-1</dim>
					<dim>10</dim>
					<dim>48</dim>
					<dim>14</dim>
				</port>
			</output>
		</layer>
		<layer id="6" name="Transpose_4083_compressed" type="Const" version="opset1">
			<data element_type="f16" shape="64, 10, 1, 1" offset="212" size="1280" />
			<output>
				<port id="0" precision="FP16">
					<dim>64</dim>
					<dim>10</dim>
					<dim>1</dim>
					<dim>1</dim>
				</port>
			</output>
		</layer>
		<layer id="7" name="Transpose_4083" type="Convert" version="opset1">
			<data destination_type="f32" />
			<rt_info>
				<attribute name="decompression" version="0" />
			</rt_info>
			<input>
				<port id="0" precision="FP16">
					<dim>64</dim>
					<dim>10</dim>
					<dim>1</dim>
					<dim>1</dim>
				</port>
			</input>
			<output>
				<port id="1" precision="FP32">
					<dim>64</dim>
					<dim>10</dim>
					<dim>1</dim>
					<dim>1</dim>
				</port>
			</output>
		</layer>
		<layer id="8" name="Convolution_4084" type="Convolution" version="opset1">
			<data strides="1, 1" dilations="1, 1" pads_begin="0, 0" pads_end="0, 0" auto_pad="valid" />
			<input>
				<port id="0" precision="FP32">
					<dim>-1</dim>
					<dim>10</dim>
					<dim>48</dim>
					<dim>14</dim>
				</port>
				<port id="1" precision="FP32">
					<dim>64</dim>
					<dim>10</dim>
					<dim>1</dim>
					<dim>1</dim>
				</port>
			</input>
			<output>
				<port id="2" precision="FP32">
					<dim>-1</dim>
					<dim>64</dim>
					<dim>48</dim>
					<dim>14</dim>
				</port>
			</output>
		</layer>
		<layer id="9" name="Transpose_4672" type="ReLU" version="opset1">
			<input>
				<port id="0" precision="FP32">
					<dim>-1</dim>
					<dim>64</dim>
					<dim>48</dim>
					<dim>14</dim>
				</port>
			</input>
			<output>
				<port id="1" precision="FP32">
					<dim>-1</dim>
					<dim>64</dim>
					<dim>48</dim>
					<dim>14</dim>
				</port>
			</output>
		</layer>
		<layer id="10" name="Transpose_4108_compressed" type="Const" version="opset1">
			<data element_type="f16" shape="64, 1, 1, 3, 3" offset="1492" size="1152" />
			<output>
				<port id="0" precision="FP16">
					<dim>64</dim>
					<dim>1</dim>
					<dim>1</dim>
					<dim>3</dim>
					<dim>3</dim>
				</port>
			</output>
		</layer>
		<layer id="11" name="Transpose_4108" type="Convert" version="opset1">
			<data destination_type="f32" />
			<rt_info>
				<attribute name="decompression" version="0" />
			</rt_info>
			<input>
				<port id="0" precision="FP16">
					<dim>64</dim>
					<dim>1</dim>
					<dim>1</dim>
					<dim>3</dim>
					<dim>3</dim>
				</port>
			</input>
			<output>
				<port id="1" precision="FP32">
					<dim>64</dim>
					<dim>1</dim>
					<dim>1</dim>
					<dim>3</dim>
					<dim>3</dim>
				</port>
			</output>
		</layer>
		<layer id="12" name="GroupConvolution_4109" type="GroupConvolution" version="opset1">
			<data strides="1, 1" pads_begin="0, 0" pads_end="0, 0" dilations="1, 1" auto_pad="same_upper" />
			<input>
				<port id="0" precision="FP32">
					<dim>-1</dim>
					<dim>64</dim>
					<dim>48</dim>
					<dim>14</dim>
				</port>
				<port id="1" precision="FP32">
					<dim>64</dim>
					<dim>1</dim>
					<dim>1</dim>
					<dim>3</dim>
					<dim>3</dim>
				</port>
			</input>
			<output>
				<port id="2" precision="FP32">
					<dim>-1</dim>
					<dim>64</dim>
					<dim>48</dim>
					<dim>14</dim>
				</port>
			</output>
		</layer>
		<layer id="13" name="Transpose_4115_compressed" type="Const" version="opset1">
			<data element_type="f16" shape="128, 64, 1, 1" offset="2644" size="16384" />
			<output>
				<port id="0" precision="FP16">
					<dim>128</dim>
					<dim>64</dim>
					<dim>1</dim>
					<dim>1</dim>
				</port>
			</output>
		</layer>
		<layer id="14" name="Transpose_4115" type="Convert" version="opset1">
			<data destination_type="f32" />
			<rt_info>
				<attribute name="decompression" version="0" />
			</rt_info>
			<input>
				<port id="0" precision="FP16">
					<dim>128</dim>
					<dim>64</dim>
					<dim>1</dim>
					<dim>1</dim>
				</port>
			</input>
			<output>
				<port id="1" precision="FP32">
					<dim>128</dim>
					<dim>64</dim>
					<dim>1</dim>
					<dim>1</dim>
				</port>
			</output>
		</layer>
		<layer id="15" name="Convolution_4116" type="Convolution" version="opset1">
			<data strides="1, 1" dilations="1, 1" pads_begin="0, 0" pads_end="0, 0" auto_pad="valid" />
			<input>
				<port id="0" precision="FP32">
					<dim>-1</dim>
					<dim>64</dim>
					<dim>48</dim>
					<dim>14</dim>
				</port>
				<port id="1" precision="FP32">
					<dim>128</dim>
					<dim>64</dim>
					<dim>1</dim>
					<dim>1</dim>
				</port>
			</input>
			<output>
				<port id="2" precision="FP32">
					<dim>-1</dim>
					<dim>128</dim>
					<dim>48</dim>
					<dim>14</dim>
				</port>
			</output>
		</layer>
		<layer id="16" name="Transpose_4680" type="ReLU" version="opset1">
			<input>
				<port id="0" precision="FP32">
					<dim>-1</dim>
					<dim>128</dim>
					<dim>48</dim>
					<dim>14</dim>
				</port>
			</input>
			<output>
				<port id="1" precision="FP32">
					<dim>-1</dim>
					<dim>128</dim>
					<dim>48</dim>
					<dim>14</dim>
				</port>
			</output>
		</layer>
		<layer id="17" name="Transpose_4126_compressed" type="Const" version="opset1">
			<data element_type="f16" shape="128, 1, 1, 3, 3" offset="19028" size="2304" />
			<output>
				<port id="0" precision="FP16">
					<dim>128</dim>
					<dim>1</dim>
					<dim>1</dim>
					<dim>3</dim>
					<dim>3</dim>
				</port>
			</output>
		</layer>
		<layer id="18" name="Transpose_4126" type="Convert" version="opset1">
			<data destination_type="f32" />
			<rt_info>
				<attribute name="decompression" version="0" />
			</rt_info>
			<input>
				<port id="0" precision="FP16">
					<dim>128</dim>
					<dim>1</dim>
					<dim>1</dim>
					<dim>3</dim>
					<dim>3</dim>
				</port>
			</input>
			<output>
				<port id="1" precision="FP32">
					<dim>128</dim>
					<dim>1</dim>
					<dim>1</dim>
					<dim>3</dim>
					<dim>3</dim>
				</port>
			</output>
		</layer>
		<layer id="19" name="GroupConvolution_4127" type="GroupConvolution" version="opset1">
			<data strides="1, 1" pads_begin="0, 0" pads_end="0, 0" dilations="1, 1" auto_pad="same_upper" />
			<input>
				<port id="0" precision="FP32">
					<dim>-1</dim>
					<dim>128</dim>
					<dim>48</dim>
					<dim>14</dim>
				</port>
				<port id="1" precision="FP32">
					<dim>128</dim>
					<dim>1</dim>
					<dim>1</dim>
					<dim>3</dim>
					<dim>3</dim>
				</port>
			</input>
			<output>
				<port id="2" precision="FP32">
					<dim>-1</dim>
					<dim>128</dim>
					<dim>48</dim>
					<dim>14</dim>
				</port>
			</output>
		</layer>
		<layer id="20" name="Transpose_4133_compressed" type="Const" version="opset1">
			<data element_type="f16" shape="64, 128, 1, 1" offset="21332" size="16384" />
			<output>
				<port id="0" precision="FP16">
					<dim>64</dim>
					<dim>128</dim>
					<dim>1</dim>
					<dim>1</dim>
				</port>
			</output>
		</layer>
		<layer id="21" name="Transpose_4133" type="Convert" version="opset1">
			<data destination_type="f32" />
			<rt_info>
				<attribute name="decompression" version="0" />
			</rt_info>
			<input>
				<port id="0" precision="FP16">
					<dim>64</dim>
					<dim>128</dim>
					<dim>1</dim>
					<dim>1</dim>
				</port>
			</input>
			<output>
				<port id="1" precision="FP32">
					<dim>64</dim>
					<dim>128</dim>
					<dim>1</dim>
					<dim>1</dim>
				</port>
			</output>
		</layer>
		<layer id="22" name="Convolution_4134" type="Convolution" version="opset1">
			<data strides="1, 1" dilations="1, 1" pads_begin="0, 0" pads_end="0, 0" auto_pad="valid" />
			<input>
				<port id="0" precision="FP32">
					<dim>-1</dim>
					<dim>128</dim>
					<dim>48</dim>
					<dim>14</dim>
				</port>
				<port id="1" precision="FP32">
					<dim>64</dim>
					<dim>128</dim>
					<dim>1</dim>
					<dim>1</dim>
				</port>
			</input>
			<output>
				<port id="2" precision="FP32">
					<dim>-1</dim>
					<dim>64</dim>
					<dim>48</dim>
					<dim>14</dim>
				</port>
			</output>
		</layer>
		<layer id="23" name="Transpose_4690" type="Add" version="opset1">
			<data auto_broadcast="numpy" />
			<input>
				<port id="0" precision="FP32">
					<dim>-1</dim>
					<dim>64</dim>
					<dim>48</dim>
					<dim>14</dim>
				</port>
				<port id="1" precision="FP32">
					<dim>-1</dim>
					<dim>64</dim>
					<dim>48</dim>
					<dim>14</dim>
				</port>
			</input>
			<output>
				<port id="2" precision="FP32">
					<dim>-1</dim>
					<dim>64</dim>
					<dim>48</dim>
					<dim>14</dim>
				</port>
			</output>
		</layer>
		<layer id="24" name="Transpose_4692" type="ReLU" version="opset1">
			<input>
				<port id="0" precision="FP32">
					<dim>-1</dim>
					<dim>64</dim>
					<dim>48</dim>
					<dim>14</dim>
				</port>
			</input>
			<output>
				<port id="1" precision="FP32">
					<dim>-1</dim>
					<dim>64</dim>
					<dim>48</dim>
					<dim>14</dim>
				</port>
			</output>
		</layer>
		<layer id="25" name="Transpose_4159_compressed" type="Const" version="opset1">
			<data element_type="f16" shape="64, 1, 1, 3, 3" offset="37716" size="1152" />
			<output>
				<port id="0" precision="FP16">
					<dim>64</dim>
					<dim>1</dim>
					<dim>1</dim>
					<dim>3</dim>
					<dim>3</dim>
				</port>
			</output>
		</layer>
		<layer id="26" name="Transpose_4159" type="Convert" version="opset1">
			<data destination_type="f32" />
			<rt_info>
				<attribute name="decompression" version="0" />
			</rt_info>
			<input>
				<port id="0" precision="FP16">
					<dim>64</dim>
					<dim>1</dim>
					<dim>1</dim>
					<dim>3</dim>
					<dim>3</dim>
				</port>
			</input>
			<output>
				<port id="1" precision="FP32">
					<dim>64</dim>
					<dim>1</dim>
					<dim>1</dim>
					<dim>3</dim>
					<dim>3</dim>
				</port>
			</output>
		</layer>
		<layer id="27" name="GroupConvolution_4160" type="GroupConvolution" version="opset1">
			<data strides="1, 1" pads_begin="0, 0" pads_end="0, 0" dilations="1, 1" auto_pad="same_upper" />
			<input>
				<port id="0" precision="FP32">
					<dim>-1</dim>
					<dim>64</dim>
					<dim>48</dim>
					<dim>14</dim>
				</port>
				<port id="1" precision="FP32">
					<dim>64</dim>
					<dim>1</dim>
					<dim>1</dim>
					<dim>3</dim>
					<dim>3</dim>
				</port>
			</input>
			<output>
				<port id="2" precision="FP32">
					<dim>-1</dim>
					<dim>64</dim>
					<dim>48</dim>
					<dim>14</dim>
				</port>
			</output>
		</layer>
		<layer id="28" name="Transpose_4166_compressed" type="Const" version="opset1">
			<data element_type="f16" shape="128, 64, 1, 1" offset="38868" size="16384" />
			<output>
				<port id="0" precision="FP16">
					<dim>128</dim>
					<dim>64</dim>
					<dim>1</dim>
					<dim>1</dim>
				</port>
			</output>
		</layer>
		<layer id="29" name="Transpose_4166" type="Convert" version="opset1">
			<data destination_type="f32" />
			<rt_info>
				<attribute name="decompression" version="0" />
			</rt_info>
			<input>
				<port id="0" precision="FP16">
					<dim>128</dim>
					<dim>64</dim>
					<dim>1</dim>
					<dim>1</dim>
				</port>
			</input>
			<output>
				<port id="1" precision="FP32">
					<dim>128</dim>
					<dim>64</dim>
					<dim>1</dim>
					<dim>1</dim>
				</port>
			</output>
		</layer>
		<layer id="30" name="Convolution_4167" type="Convolution" version="opset1">
			<data strides="1, 1" dilations="1, 1" pads_begin="0, 0" pads_end="0, 0" auto_pad="valid" />
			<input>
				<port id="0" precision="FP32">
					<dim>-1</dim>
					<dim>64</dim>
					<dim>48</dim>
					<dim>14</dim>
				</port>
				<port id="1" precision="FP32">
					<dim>128</dim>
					<dim>64</dim>
					<dim>1</dim>
					<dim>1</dim>
				</port>
			</input>
			<output>
				<port id="2" precision="FP32">
					<dim>-1</dim>
					<dim>128</dim>
					<dim>48</dim>
					<dim>14</dim>
				</port>
			</output>
		</layer>
		<layer id="31" name="Transpose_4700" type="ReLU" version="opset1">
			<input>
				<port id="0" precision="FP32">
					<dim>-1</dim>
					<dim>128</dim>
					<dim>48</dim>
					<dim>14</dim>
				</port>
			</input>
			<output>
				<port id="1" precision="FP32">
					<dim>-1</dim>
					<dim>128</dim>
					<dim>48</dim>
					<dim>14</dim>
				</port>
			</output>
		</layer>
		<layer id="32" name="Transpose_4177_compressed" type="Const" version="opset1">
			<data element_type="f16" shape="128, 1, 1, 3, 3" offset="55252" size="2304" />
			<output>
				<port id="0" precision="FP16">
					<dim>128</dim>
					<dim>1</dim>
					<dim>1</dim>
					<dim>3</dim>
					<dim>3</dim>
				</port>
			</output>
		</layer>
		<layer id="33" name="Transpose_4177" type="Convert" version="opset1">
			<data destination_type="f32" />
			<rt_info>
				<attribute name="decompression" version="0" />
			</rt_info>
			<input>
				<port id="0" precision="FP16">
					<dim>128</dim>
					<dim>1</dim>
					<dim>1</dim>
					<dim>3</dim>
					<dim>3</dim>
				</port>
			</input>
			<output>
				<port id="1" precision="FP32">
					<dim>128</dim>
					<dim>1</dim>
					<dim>1</dim>
					<dim>3</dim>
					<dim>3</dim>
				</port>
			</output>
		</layer>
		<layer id="34" name="GroupConvolution_4178" type="GroupConvolution" version="opset1">
			<data strides="1, 1" pads_begin="0, 0" pads_end="0, 0" dilations="1, 1" auto_pad="same_upper" />
			<input>
				<port id="0" precision="FP32">
					<dim>-1</dim>
					<dim>128</dim>
					<dim>48</dim>
					<dim>14</dim>
				</port>
				<port id="1" precision="FP32">
					<dim>128</dim>
					<dim>1</dim>
					<dim>1</dim>
					<dim>3</dim>
					<dim>3</dim>
				</port>
			</input>
			<output>
				<port id="2" precision="FP32">
					<dim>-1</dim>
					<dim>128</dim>
					<dim>48</dim>
					<dim>14</dim>
				</port>
			</output>
		</layer>
		<layer id="35" name="Transpose_4184_compressed" type="Const" version="opset1">
			<data element_type="f16" shape="64, 128, 1, 1" offset="57556" size="16384" />
			<output>
				<port id="0" precision="FP16">
					<dim>64</dim>
					<dim>128</dim>
					<dim>1</dim>
					<dim>1</dim>
				</port>
			</output>
		</layer>
		<layer id="36" name="Transpose_4184" type="Convert" version="opset1">
			<data destination_type="f32" />
			<rt_info>
				<attribute name="decompression" version="0" />
			</rt_info>
			<input>
				<port id="0" precision="FP16">
					<dim>64</dim>
					<dim>128</dim>
					<dim>1</dim>
					<dim>1</dim>
				</port>
			</input>
			<output>
				<port id="1" precision="FP32">
					<dim>64</dim>
					<dim>128</dim>
					<dim>1</dim>
					<dim>1</dim>
				</port>
			</output>
		</layer>
		<layer id="37" name="Convolution_4185" type="Convolution" version="opset1">
			<data strides="1, 1" dilations="1, 1" pads_begin="0, 0" pads_end="0, 0" auto_pad="valid" />
			<input>
				<port id="0" precision="FP32">
					<dim>-1</dim>
					<dim>128</dim>
					<dim>48</dim>
					<dim>14</dim>
				</port>
				<port id="1" precision="FP32">
					<dim>64</dim>
					<dim>128</dim>
					<dim>1</dim>
					<dim>1</dim>
				</port>
			</input>
			<output>
				<port id="2" precision="FP32">
					<dim>-1</dim>
					<dim>64</dim>
					<dim>48</dim>
					<dim>14</dim>
				</port>
			</output>
		</layer>
		<layer id="38" name="Transpose_4710" type="Add" version="opset1">
			<data auto_broadcast="numpy" />
			<input>
				<port id="0" precision="FP32">
					<dim>-1</dim>
					<dim>64</dim>
					<dim>48</dim>
					<dim>14</dim>
				</port>
				<port id="1" precision="FP32">
					<dim>-1</dim>
					<dim>64</dim>
					<dim>48</dim>
					<dim>14</dim>
				</port>
			</input>
			<output>
				<port id="2" precision="FP32">
					<dim>-1</dim>
					<dim>64</dim>
					<dim>48</dim>
					<dim>14</dim>
				</port>
			</output>
		</layer>
		<layer id="39" name="Transpose_4712" type="ReLU" version="opset1">
			<input>
				<port id="0" precision="FP32">
					<dim>-1</dim>
					<dim>64</dim>
					<dim>48</dim>
					<dim>14</dim>
				</port>
			</input>
			<output>
				<port id="1" precision="FP32">
					<dim>-1</dim>
					<dim>64</dim>
					<dim>48</dim>
					<dim>14</dim>
				</port>
			</output>
		</layer>
		<layer id="40" name="Transpose_4210_compressed" type="Const" version="opset1">
			<data element_type="f16" shape="64, 1, 1, 3, 3" offset="73940" size="1152" />
			<output>
				<port id="0" precision="FP16">
					<dim>64</dim>
					<dim>1</dim>
					<dim>1</dim>
					<dim>3</dim>
					<dim>3</dim>
				</port>
			</output>
		</layer>
		<layer id="41" name="Transpose_4210" type="Convert" version="opset1">
			<data destination_type="f32" />
			<rt_info>
				<attribute name="decompression" version="0" />
			</rt_info>
			<input>
				<port id="0" precision="FP16">
					<dim>64</dim>
					<dim>1</dim>
					<dim>1</dim>
					<dim>3</dim>
					<dim>3</dim>
				</port>
			</input>
			<output>
				<port id="1" precision="FP32">
					<dim>64</dim>
					<dim>1</dim>
					<dim>1</dim>
					<dim>3</dim>
					<dim>3</dim>
				</port>
			</output>
		</layer>
		<layer id="42" name="GroupConvolution_4211" type="GroupConvolution" version="opset1">
			<data strides="1, 1" pads_begin="0, 0" pads_end="0, 0" dilations="1, 1" auto_pad="same_upper" />
			<input>
				<port id="0" precision="FP32">
					<dim>-1</dim>
					<dim>64</dim>
					<dim>48</dim>
					<dim>14</dim>
				</port>
				<port id="1" precision="FP32">
					<dim>64</dim>
					<dim>1</dim>
					<dim>1</dim>
					<dim>3</dim>
					<dim>3</dim>
				</port>
			</input>
			<output>
				<port id="2" precision="FP32">
					<dim>-1</dim>
					<dim>64</dim>
					<dim>48</dim>
					<dim>14</dim>
				</port>
			</output>
		</layer>
		<layer id="43" name="Transpose_4217_compressed" type="Const" version="opset1">
			<data element_type="f16" shape="128, 64, 1, 1" offset="75092" size="16384" />
			<output>
				<port id="0" precision="FP16">
					<dim>128</dim>
					<dim>64</dim>
					<dim>1</dim>
					<dim>1</dim>
				</port>
			</output>
		</layer>
		<layer id="44" name="Transpose_4217" type="Convert" version="opset1">
			<data destination_type="f32" />
			<rt_info>
				<attribute name="decompression" version="0" />
			</rt_info>
			<input>
				<port id="0" precision="FP16">
					<dim>128</dim>
					<dim>64</dim>
					<dim>1</dim>
					<dim>1</dim>
				</port>
			</input>
			<output>
				<port id="1" precision="FP32">
					<dim>128</dim>
					<dim>64</dim>
					<dim>1</dim>
					<dim>1</dim>
				</port>
			</output>
		</layer>
		<layer id="45" name="Convolution_4218" type="Convolution" version="opset1">
			<data strides="1, 1" dilations="1, 1" pads_begin="0, 0" pads_end="0, 0" auto_pad="valid" />
			<input>
				<port id="0" precision="FP32">
					<dim>-1</dim>
					<dim>64</dim>
					<dim>48</dim>
					<dim>14</dim>
				</port>
				<port id="1" precision="FP32">
					<dim>128</dim>
					<dim>64</dim>
					<dim>1</dim>
					<dim>1</dim>
				</port>
			</input>
			<output>
				<port id="2" precision="FP32">
					<dim>-1</dim>
					<dim>128</dim>
					<dim>48</dim>
					<dim>14</dim>
				</port>
			</output>
		</layer>
		<layer id="46" name="Transpose_4720" type="ReLU" version="opset1">
			<input>
				<port id="0" precision="FP32">
					<dim>-1</dim>
					<dim>128</dim>
					<dim>48</dim>
					<dim>14</dim>
				</port>
			</input>
			<output>
				<port id="1" precision="FP32">
					<dim>-1</dim>
					<dim>128</dim>
					<dim>48</dim>
					<dim>14</dim>
				</port>
			</output>
		</layer>
		<layer id="47" name="Transpose_4228_compressed" type="Const" version="opset1">
			<data element_type="f16" shape="128, 1, 1, 3, 3" offset="91476" size="2304" />
			<output>
				<port id="0" precision="FP16">
					<dim>128</dim>
					<dim>1</dim>
					<dim>1</dim>
					<dim>3</dim>
					<dim>3</dim>
				</port>
			</output>
		</layer>
		<layer id="48" name="Transpose_4228" type="Convert" version="opset1">
			<data destination_type="f32" />
			<rt_info>
				<attribute name="decompression" version="0" />
			</rt_info>
			<input>
				<port id="0" precision="FP16">
					<dim>128</dim>
					<dim>1</dim>
					<dim>1</dim>
					<dim>3</dim>
					<dim>3</dim>
				</port>
			</input>
			<output>
				<port id="1" precision="FP32">
					<dim>128</dim>
					<dim>1</dim>
					<dim>1</dim>
					<dim>3</dim>
					<dim>3</dim>
				</port>
			</output>
		</layer>
		<layer id="49" name="GroupConvolution_4229" type="GroupConvolution" version="opset1">
			<data strides="1, 1" pads_begin="0, 0" pads_end="0, 0" dilations="1, 1" auto_pad="same_upper" />
			<input>
				<port id="0" precision="FP32">
					<dim>-1</dim>
					<dim>128</dim>
					<dim>48</dim>
					<dim>14</dim>
				</port>
				<port id="1" precision="FP32">
					<dim>128</dim>
					<dim>1</dim>
					<dim>1</dim>
					<dim>3</dim>
					<dim>3</dim>
				</port>
			</input>
			<output>
				<port id="2" precision="FP32">
					<dim>-1</dim>
					<dim>128</dim>
					<dim>48</dim>
					<dim>14</dim>
				</port>
			</output>
		</layer>
		<layer id="50" name="Transpose_4235_compressed" type="Const" version="opset1">
			<data element_type="f16" shape="64, 128, 1, 1" offset="93780" size="16384" />
			<output>
				<port id="0" precision="FP16">
					<dim>64</dim>
					<dim>128</dim>
					<dim>1</dim>
					<dim>1</dim>
				</port>
			</output>
		</layer>
		<layer id="51" name="Transpose_4235" type="Convert" version="opset1">
			<data destination_type="f32" />
			<rt_info>
				<attribute name="decompression" version="0" />
			</rt_info>
			<input>
				<port id="0" precision="FP16">
					<dim>64</dim>
					<dim>128</dim>
					<dim>1</dim>
					<dim>1</dim>
				</port>
			</input>
			<output>
				<port id="1" precision="FP32">
					<dim>64</dim>
					<dim>128</dim>
					<dim>1</dim>
					<dim>1</dim>
				</port>
			</output>
		</layer>
		<layer id="52" name="Convolution_4236" type="Convolution" version="opset1">
			<data strides="1, 1" dilations="1, 1" pads_begin="0, 0" pads_end="0, 0" auto_pad="valid" />
			<input>
				<port id="0" precision="FP32">
					<dim>-1</dim>
					<dim>128</dim>
					<dim>48</dim>
					<dim>14</dim>
				</port>
				<port id="1" precision="FP32">
					<dim>64</dim>
					<dim>128</dim>
					<dim>1</dim>
					<dim>1</dim>
				</port>
			</input>
			<output>
				<port id="2" precision="FP32">
					<dim>-1</dim>
					<dim>64</dim>
					<dim>48</dim>
					<dim>14</dim>
				</port>
			</output>
		</layer>
		<layer id="53" name="Transpose_4730" type="Add" version="opset1">
			<data auto_broadcast="numpy" />
			<input>
				<port id="0" precision="FP32">
					<dim>-1</dim>
					<dim>64</dim>
					<dim>48</dim>
					<dim>14</dim>
				</port>
				<port id="1" precision="FP32">
					<dim>-1</dim>
					<dim>64</dim>
					<dim>48</dim>
					<dim>14</dim>
				</port>
			</input>
			<output>
				<port id="2" precision="FP32">
					<dim>-1</dim>
					<dim>64</dim>
					<dim>48</dim>
					<dim>14</dim>
				</port>
			</output>
		</layer>
		<layer id="54" name="Transpose_4732" type="ReLU" version="opset1">
			<input>
				<port id="0" precision="FP32">
					<dim>-1</dim>
					<dim>64</dim>
					<dim>48</dim>
					<dim>14</dim>
				</port>
			</input>
			<output>
				<port id="1" precision="FP32">
					<dim>-1</dim>
					<dim>64</dim>
					<dim>48</dim>
					<dim>14</dim>
				</port>
			</output>
		</layer>
		<layer id="55" name="Transpose_4261_compressed" type="Const" version="opset1">
			<data element_type="f16" shape="64, 1, 1, 3, 3" offset="110164" size="1152" />
			<output>
				<port id="0" precision="FP16">
					<dim>64</dim>
					<dim>1</dim>
					<dim>1</dim>
					<dim>3</dim>
					<dim>3</dim>
				</port>
			</output>
		</layer>
		<layer id="56" name="Transpose_4261" type="Convert" version="opset1">
			<data destination_type="f32" />
			<rt_info>
				<attribute name="decompression" version="0" />
			</rt_info>
			<input>
				<port id="0" precision="FP16">
					<dim>64</dim>
					<dim>1</dim>
					<dim>1</dim>
					<dim>3</dim>
					<dim>3</dim>
				</port>
			</input>
			<output>
				<port id="1" precision="FP32">
					<dim>64</dim>
					<dim>1</dim>
					<dim>1</dim>
					<dim>3</dim>
					<dim>3</dim>
				</port>
			</output>
		</layer>
		<layer id="57" name="GroupConvolution_4262" type="GroupConvolution" version="opset1">
			<data strides="1, 1" pads_begin="0, 0" pads_end="0, 0" dilations="1, 1" auto_pad="same_upper" />
			<input>
				<port id="0" precision="FP32">
					<dim>-1</dim>
					<dim>64</dim>
					<dim>48</dim>
					<dim>14</dim>
				</port>
				<port id="1" precision="FP32">
					<dim>64</dim>
					<dim>1</dim>
					<dim>1</dim>
					<dim>3</dim>
					<dim>3</dim>
				</port>
			</input>
			<output>
				<port id="2" precision="FP32">
					<dim>-1</dim>
					<dim>64</dim>
					<dim>48</dim>
					<dim>14</dim>
				</port>
			</output>
		</layer>
		<layer id="58" name="Transpose_4268_compressed" type="Const" version="opset1">
			<data element_type="f16" shape="128, 64, 1, 1" offset="111316" size="16384" />
			<output>
				<port id="0" precision="FP16">
					<dim>128</dim>
					<dim>64</dim>
					<dim>1</dim>
					<dim>1</dim>
				</port>
			</output>
		</layer>
		<layer id="59" name="Transpose_4268" type="Convert" version="opset1">
			<data destination_type="f32" />
			<rt_info>
				<attribute name="decompression" version="0" />
			</rt_info>
			<input>
				<port id="0" precision="FP16">
					<dim>128</dim>
					<dim>64</dim>
					<dim>1</dim>
					<dim>1</dim>
				</port>
			</input>
			<output>
				<port id="1" precision="FP32">
					<dim>128</dim>
					<dim>64</dim>
					<dim>1</dim>
					<dim>1</dim>
				</port>
			</output>
		</layer>
		<layer id="60" name="Convolution_4269" type="Convolution" version="opset1">
			<data strides="1, 1" dilations="1, 1" pads_begin="0, 0" pads_end="0, 0" auto_pad="valid" />
			<input>
				<port id="0" precision="FP32">
					<dim>-1</dim>
					<dim>64</dim>
					<dim>48</dim>
					<dim>14</dim>
				</port>
				<port id="1" precision="FP32">
					<dim>128</dim>
					<dim>64</dim>
					<dim>1</dim>
					<dim>1</dim>
				</port>
			</input>
			<output>
				<port id="2" precision="FP32">
					<dim>-1</dim>
					<dim>128</dim>
					<dim>48</dim>
					<dim>14</dim>
				</port>
			</output>
		</layer>
		<layer id="61" name="Transpose_4740" type="ReLU" version="opset1">
			<input>
				<port id="0" precision="FP32">
					<dim>-1</dim>
					<dim>128</dim>
					<dim>48</dim>
					<dim>14</dim>
				</port>
			</input>
			<output>
				<port id="1" precision="FP32">
					<dim>-1</dim>
					<dim>128</dim>
					<dim>48</dim>
					<dim>14</dim>
				</port>
			</output>
		</layer>
		<layer id="62" name="Transpose_4279_compressed" type="Const" version="opset1">
			<data element_type="f16" shape="128, 1, 1, 3, 3" offset="127700" size="2304" />
			<output>
				<port id="0" precision="FP16">
					<dim>128</dim>
					<dim>1</dim>
					<dim>1</dim>
					<dim>3</dim>
					<dim>3</dim>
				</port>
			</output>
		</layer>
		<layer id="63" name="Transpose_4279" type="Convert" version="opset1">
			<data destination_type="f32" />
			<rt_info>
				<attribute name="decompression" version="0" />
			</rt_info>
			<input>
				<port id="0" precision="FP16">
					<dim>128</dim>
					<dim>1</dim>
					<dim>1</dim>
					<dim>3</dim>
					<dim>3</dim>
				</port>
			</input>
			<output>
				<port id="1" precision="FP32">
					<dim>128</dim>
					<dim>1</dim>
					<dim>1</dim>
					<dim>3</dim>
					<dim>3</dim>
				</port>
			</output>
		</layer>
		<layer id="64" name="GroupConvolution_4280" type="GroupConvolution" version="opset1">
			<data strides="1, 1" pads_begin="0, 0" pads_end="0, 0" dilations="1, 1" auto_pad="same_upper" />
			<input>
				<port id="0" precision="FP32">
					<dim>-1</dim>
					<dim>128</dim>
					<dim>48</dim>
					<dim>14</dim>
				</port>
				<port id="1" precision="FP32">
					<dim>128</dim>
					<dim>1</dim>
					<dim>1</dim>
					<dim>3</dim>
					<dim>3</dim>
				</port>
			</input>
			<output>
				<port id="2" precision="FP32">
					<dim>-1</dim>
					<dim>128</dim>
					<dim>48</dim>
					<dim>14</dim>
				</port>
			</output>
		</layer>
		<layer id="65" name="Transpose_4286_compressed" type="Const" version="opset1">
			<data element_type="f16" shape="64, 128, 1, 1" offset="130004" size="16384" />
			<output>
				<port id="0" precision="FP16">
					<dim>64</dim>
					<dim>128</dim>
					<dim>1</dim>
					<dim>1</dim>
				</port>
			</output>
		</layer>
		<layer id="66" name="Transpose_4286" type="Convert" version="opset1">
			<data destination_type="f32" />
			<rt_info>
				<attribute name="decompression" version="0" />
			</rt_info>
			<input>
				<port id="0" precision="FP16">
					<dim>64</dim>
					<dim>128</dim>
					<dim>1</dim>
					<dim>1</dim>
				</port>
			</input>
			<output>
				<port id="1" precision="FP32">
					<dim>64</dim>
					<dim>128</dim>
					<dim>1</dim>
					<dim>1</dim>
				</port>
			</output>
		</layer>
		<layer id="67" name="Convolution_4287" type="Convolution" version="opset1">
			<data strides="1, 1" dilations="1, 1" pads_begin="0, 0" pads_end="0, 0" auto_pad="valid" />
			<input>
				<port id="0" precision="FP32">
					<dim>-1</dim>
					<dim>128</dim>
					<dim>48</dim>
					<dim>14</dim>
				</port>
				<port id="1" precision="FP32">
					<dim>64</dim>
					<dim>128</dim>
					<dim>1</dim>
					<dim>1</dim>
				</port>
			</input>
			<output>
				<port id="2" precision="FP32">
					<dim>-1</dim>
					<dim>64</dim>
					<dim>48</dim>
					<dim>14</dim>
				</port>
			</output>
		</layer>
		<layer id="68" name="Transpose_4750" type="Add" version="opset1">
			<data auto_broadcast="numpy" />
			<input>
				<port id="0" precision="FP32">
					<dim>-1</dim>
					<dim>64</dim>
					<dim>48</dim>
					<dim>14</dim>
				</port>
				<port id="1" precision="FP32">
					<dim>-1</dim>
					<dim>64</dim>
					<dim>48</dim>
					<dim>14</dim>
				</port>
			</input>
			<output>
				<port id="2" precision="FP32">
					<dim>-1</dim>
					<dim>64</dim>
					<dim>48</dim>
					<dim>14</dim>
				</port>
			</output>
		</layer>
		<layer id="69" name="Transpose_4752" type="ReLU" version="opset1">
			<input>
				<port id="0" precision="FP32">
					<dim>-1</dim>
					<dim>64</dim>
					<dim>48</dim>
					<dim>14</dim>
				</port>
			</input>
			<output>
				<port id="1" precision="FP32">
					<dim>-1</dim>
					<dim>64</dim>
					<dim>48</dim>
					<dim>14</dim>
				</port>
			</output>
		</layer>
		<layer id="70" name="Transpose_4312_compressed" type="Const" version="opset1">
			<data element_type="f16" shape="64, 1, 1, 3, 3" offset="146388" size="1152" />
			<output>
				<port id="0" precision="FP16">
					<dim>64</dim>
					<dim>1</dim>
					<dim>1</dim>
					<dim>3</dim>
					<dim>3</dim>
				</port>
			</output>
		</layer>
		<layer id="71" name="Transpose_4312" type="Convert" version="opset1">
			<data destination_type="f32" />
			<rt_info>
				<attribute name="decompression" version="0" />
			</rt_info>
			<input>
				<port id="0" precision="FP16">
					<dim>64</dim>
					<dim>1</dim>
					<dim>1</dim>
					<dim>3</dim>
					<dim>3</dim>
				</port>
			</input>
			<output>
				<port id="1" precision="FP32">
					<dim>64</dim>
					<dim>1</dim>
					<dim>1</dim>
					<dim>3</dim>
					<dim>3</dim>
				</port>
			</output>
		</layer>
		<layer id="72" name="GroupConvolution_4313" type="GroupConvolution" version="opset1">
			<data strides="1, 1" pads_begin="0, 0" pads_end="0, 0" dilations="1, 1" auto_pad="same_upper" />
			<input>
				<port id="0" precision="FP32">
					<dim>-1</dim>
					<dim>64</dim>
					<dim>48</dim>
					<dim>14</dim>
				</port>
				<port id="1" precision="FP32">
					<dim>64</dim>
					<dim>1</dim>
					<dim>1</dim>
					<dim>3</dim>
					<dim>3</dim>
				</port>
			</input>
			<output>
				<port id="2" precision="FP32">
					<dim>-1</dim>
					<dim>64</dim>
					<dim>48</dim>
					<dim>14</dim>
				</port>
			</output>
		</layer>
		<layer id="73" name="Transpose_4319_compressed" type="Const" version="opset1">
			<data element_type="f16" shape="128, 64, 1, 1" offset="147540" size="16384" />
			<output>
				<port id="0" precision="FP16">
					<dim>128</dim>
					<dim>64</dim>
					<dim>1</dim>
					<dim>1</dim>
				</port>
			</output>
		</layer>
		<layer id="74" name="Transpose_4319" type="Convert" version="opset1">
			<data destination_type="f32" />
			<rt_info>
				<attribute name="decompression" version="0" />
			</rt_info>
			<input>
				<port id="0" precision="FP16">
					<dim>128</dim>
					<dim>64</dim>
					<dim>1</dim>
					<dim>1</dim>
				</port>
			</input>
			<output>
				<port id="1" precision="FP32">
					<dim>128</dim>
					<dim>64</dim>
					<dim>1</dim>
					<dim>1</dim>
				</port>
			</output>
		</layer>
		<layer id="75" name="Convolution_4320" type="Convolution" version="opset1">
			<data strides="1, 1" dilations="1, 1" pads_begin="0, 0" pads_end="0, 0" auto_pad="valid" />
			<input>
				<port id="0" precision="FP32">
					<dim>-1</dim>
					<dim>64</dim>
					<dim>48</dim>
					<dim>14</dim>
				</port>
				<port id="1" precision="FP32">
					<dim>128</dim>
					<dim>64</dim>
					<dim>1</dim>
					<dim>1</dim>
				</port>
			</input>
			<output>
				<port id="2" precision="FP32">
					<dim>-1</dim>
					<dim>128</dim>
					<dim>48</dim>
					<dim>14</dim>
				</port>
			</output>
		</layer>
		<layer id="76" name="Transpose_4760" type="ReLU" version="opset1">
			<input>
				<port id="0" precision="FP32">
					<dim>-1</dim>
					<dim>128</dim>
					<dim>48</dim>
					<dim>14</dim>
				</port>
			</input>
			<output>
				<port id="1" precision="FP32">
					<dim>-1</dim>
					<dim>128</dim>
					<dim>48</dim>
					<dim>14</dim>
				</port>
			</output>
		</layer>
		<layer id="77" name="Transpose_4330_compressed" type="Const" version="opset1">
			<data element_type="f16" shape="128, 1, 1, 3, 3" offset="163924" size="2304" />
			<output>
				<port id="0" precision="FP16">
					<dim>128</dim>
					<dim>1</dim>
					<dim>1</dim>
					<dim>3</dim>
					<dim>3</dim>
				</port>
			</output>
		</layer>
		<layer id="78" name="Transpose_4330" type="Convert" version="opset1">
			<data destination_type="f32" />
			<rt_info>
				<attribute name="decompression" version="0" />
			</rt_info>
			<input>
				<port id="0" precision="FP16">
					<dim>128</dim>
					<dim>1</dim>
					<dim>1</dim>
					<dim>3</dim>
					<dim>3</dim>
				</port>
			</input>
			<output>
				<port id="1" precision="FP32">
					<dim>128</dim>
					<dim>1</dim>
					<dim>1</dim>
					<dim>3</dim>
					<dim>3</dim>
				</port>
			</output>
		</layer>
		<layer id="79" name="GroupConvolution_4331" type="GroupConvolution" version="opset1">
			<data strides="1, 1" pads_begin="0, 0" pads_end="0, 0" dilations="1, 1" auto_pad="same_upper" />
			<input>
				<port id="0" precision="FP32">
					<dim>-1</dim>
					<dim>128</dim>
					<dim>48</dim>
					<dim>14</dim>
				</port>
				<port id="1" precision="FP32">
					<dim>128</dim>
					<dim>1</dim>
					<dim>1</dim>
					<dim>3</dim>
					<dim>3</dim>
				</port>
			</input>
			<output>
				<port id="2" precision="FP32">
					<dim>-1</dim>
					<dim>128</dim>
					<dim>48</dim>
					<dim>14</dim>
				</port>
			</output>
		</layer>
		<layer id="80" name="Transpose_4337_compressed" type="Const" version="opset1">
			<data element_type="f16" shape="64, 128, 1, 1" offset="166228" size="16384" />
			<output>
				<port id="0" precision="FP16">
					<dim>64</dim>
					<dim>128</dim>
					<dim>1</dim>
					<dim>1</dim>
				</port>
			</output>
		</layer>
		<layer id="81" name="Transpose_4337" type="Convert" version="opset1">
			<data destination_type="f32" />
			<rt_info>
				<attribute name="decompression" version="0" />
			</rt_info>
			<input>
				<port id="0" precision="FP16">
					<dim>64</dim>
					<dim>128</dim>
					<dim>1</dim>
					<dim>1</dim>
				</port>
			</input>
			<output>
				<port id="1" precision="FP32">
					<dim>64</dim>
					<dim>128</dim>
					<dim>1</dim>
					<dim>1</dim>
				</port>
			</output>
		</layer>
		<layer id="82" name="Convolution_4338" type="Convolution" version="opset1">
			<data strides="1, 1" dilations="1, 1" pads_begin="0, 0" pads_end="0, 0" auto_pad="valid" />
			<input>
				<port id="0" precision="FP32">
					<dim>-1</dim>
					<dim>128</dim>
					<dim>48</dim>
					<dim>14</dim>
				</port>
				<port id="1" precision="FP32">
					<dim>64</dim>
					<dim>128</dim>
					<dim>1</dim>
					<dim>1</dim>
				</port>
			</input>
			<output>
				<port id="2" precision="FP32">
					<dim>-1</dim>
					<dim>64</dim>
					<dim>48</dim>
					<dim>14</dim>
				</port>
			</output>
		</layer>
		<layer id="83" name="Transpose_4770" type="Add" version="opset1">
			<data auto_broadcast="numpy" />
			<input>
				<port id="0" precision="FP32">
					<dim>-1</dim>
					<dim>64</dim>
					<dim>48</dim>
					<dim>14</dim>
				</port>
				<port id="1" precision="FP32">
					<dim>-1</dim>
					<dim>64</dim>
					<dim>48</dim>
					<dim>14</dim>
				</port>
			</input>
			<output>
				<port id="2" precision="FP32">
					<dim>-1</dim>
					<dim>64</dim>
					<dim>48</dim>
					<dim>14</dim>
				</port>
			</output>
		</layer>
		<layer id="84" name="Transpose_4772" type="ReLU" version="opset1">
			<input>
				<port id="0" precision="FP32">
					<dim>-1</dim>
					<dim>64</dim>
					<dim>48</dim>
					<dim>14</dim>
				</port>
			</input>
			<output>
				<port id="1" precision="FP32">
					<dim>-1</dim>
					<dim>64</dim>
					<dim>48</dim>
					<dim>14</dim>
				</port>
			</output>
		</layer>
		<layer id="85" name="Transpose_4363_compressed" type="Const" version="opset1">
			<data element_type="f16" shape="64, 1, 1, 3, 3" offset="182612" size="1152" />
			<output>
				<port id="0" precision="FP16">
					<dim>64</dim>
					<dim>1</dim>
					<dim>1</dim>
					<dim>3</dim>
					<dim>3</dim>
				</port>
			</output>
		</layer>
		<layer id="86" name="Transpose_4363" type="Convert" version="opset1">
			<data destination_type="f32" />
			<rt_info>
				<attribute name="decompression" version="0" />
			</rt_info>
			<input>
				<port id="0" precision="FP16">
					<dim>64</dim>
					<dim>1</dim>
					<dim>1</dim>
					<dim>3</dim>
					<dim>3</dim>
				</port>
			</input>
			<output>
				<port id="1" precision="FP32">
					<dim>64</dim>
					<dim>1</dim>
					<dim>1</dim>
					<dim>3</dim>
					<dim>3</dim>
				</port>
			</output>
		</layer>
		<layer id="87" name="GroupConvolution_4364" type="GroupConvolution" version="opset1">
			<data strides="1, 1" pads_begin="0, 0" pads_end="0, 0" dilations="1, 1" auto_pad="same_upper" />
			<input>
				<port id="0" precision="FP32">
					<dim>-1</dim>
					<dim>64</dim>
					<dim>48</dim>
					<dim>14</dim>
				</port>
				<port id="1" precision="FP32">
					<dim>64</dim>
					<dim>1</dim>
					<dim>1</dim>
					<dim>3</dim>
					<dim>3</dim>
				</port>
			</input>
			<output>
				<port id="2" precision="FP32">
					<dim>-1</dim>
					<dim>64</dim>
					<dim>48</dim>
					<dim>14</dim>
				</port>
			</output>
		</layer>
		<layer id="88" name="Transpose_4370_compressed" type="Const" version="opset1">
			<data element_type="f16" shape="128, 64, 1, 1" offset="183764" size="16384" />
			<output>
				<port id="0" precision="FP16">
					<dim>128</dim>
					<dim>64</dim>
					<dim>1</dim>
					<dim>1</dim>
				</port>
			</output>
		</layer>
		<layer id="89" name="Transpose_4370" type="Convert" version="opset1">
			<data destination_type="f32" />
			<rt_info>
				<attribute name="decompression" version="0" />
			</rt_info>
			<input>
				<port id="0" precision="FP16">
					<dim>128</dim>
					<dim>64</dim>
					<dim>1</dim>
					<dim>1</dim>
				</port>
			</input>
			<output>
				<port id="1" precision="FP32">
					<dim>128</dim>
					<dim>64</dim>
					<dim>1</dim>
					<dim>1</dim>
				</port>
			</output>
		</layer>
		<layer id="90" name="Convolution_4371" type="Convolution" version="opset1">
			<data strides="1, 1" dilations="1, 1" pads_begin="0, 0" pads_end="0, 0" auto_pad="valid" />
			<input>
				<port id="0" precision="FP32">
					<dim>-1</dim>
					<dim>64</dim>
					<dim>48</dim>
					<dim>14</dim>
				</port>
				<port id="1" precision="FP32">
					<dim>128</dim>
					<dim>64</dim>
					<dim>1</dim>
					<dim>1</dim>
				</port>
			</input>
			<output>
				<port id="2" precision="FP32">
					<dim>-1</dim>
					<dim>128</dim>
					<dim>48</dim>
					<dim>14</dim>
				</port>
			</output>
		</layer>
		<layer id="91" name="Transpose_4780" type="ReLU" version="opset1">
			<input>
				<port id="0" precision="FP32">
					<dim>-1</dim>
					<dim>128</dim>
					<dim>48</dim>
					<dim>14</dim>
				</port>
			</input>
			<output>
				<port id="1" precision="FP32">
					<dim>-1</dim>
					<dim>128</dim>
					<dim>48</dim>
					<dim>14</dim>
				</port>
			</output>
		</layer>
		<layer id="92" name="Transpose_4381_compressed" type="Const" version="opset1">
			<data element_type="f16" shape="128, 1, 1, 3, 3" offset="200148" size="2304" />
			<output>
				<port id="0" precision="FP16">
					<dim>128</dim>
					<dim>1</dim>
					<dim>1</dim>
					<dim>3</dim>
					<dim>3</dim>
				</port>
			</output>
		</layer>
		<layer id="93" name="Transpose_4381" type="Convert" version="opset1">
			<data destination_type="f32" />
			<rt_info>
				<attribute name="decompression" version="0" />
			</rt_info>
			<input>
				<port id="0" precision="FP16">
					<dim>128</dim>
					<dim>1</dim>
					<dim>1</dim>
					<dim>3</dim>
					<dim>3</dim>
				</port>
			</input>
			<output>
				<port id="1" precision="FP32">
					<dim>128</dim>
					<dim>1</dim>
					<dim>1</dim>
					<dim>3</dim>
					<dim>3</dim>
				</port>
			</output>
		</layer>
		<layer id="94" name="GroupConvolution_4382" type="GroupConvolution" version="opset1">
			<data strides="1, 1" pads_begin="0, 0" pads_end="0, 0" dilations="1, 1" auto_pad="same_upper" />
			<input>
				<port id="0" precision="FP32">
					<dim>-1</dim>
					<dim>128</dim>
					<dim>48</dim>
					<dim>14</dim>
				</port>
				<port id="1" precision="FP32">
					<dim>128</dim>
					<dim>1</dim>
					<dim>1</dim>
					<dim>3</dim>
					<dim>3</dim>
				</port>
			</input>
			<output>
				<port id="2" precision="FP32">
					<dim>-1</dim>
					<dim>128</dim>
					<dim>48</dim>
					<dim>14</dim>
				</port>
			</output>
		</layer>
		<layer id="95" name="Transpose_4388_compressed" type="Const" version="opset1">
			<data element_type="f16" shape="64, 128, 1, 1" offset="202452" size="16384" />
			<output>
				<port id="0" precision="FP16">
					<dim>64</dim>
					<dim>128</dim>
					<dim>1</dim>
					<dim>1</dim>
				</port>
			</output>
		</layer>
		<layer id="96" name="Transpose_4388" type="Convert" version="opset1">
			<data destination_type="f32" />
			<rt_info>
				<attribute name="decompression" version="0" />
			</rt_info>
			<input>
				<port id="0" precision="FP16">
					<dim>64</dim>
					<dim>128</dim>
					<dim>1</dim>
					<dim>1</dim>
				</port>
			</input>
			<output>
				<port id="1" precision="FP32">
					<dim>64</dim>
					<dim>128</dim>
					<dim>1</dim>
					<dim>1</dim>
				</port>
			</output>
		</layer>
		<layer id="97" name="Convolution_4389" type="Convolution" version="opset1">
			<data strides="1, 1" dilations="1, 1" pads_begin="0, 0" pads_end="0, 0" auto_pad="valid" />
			<input>
				<port id="0" precision="FP32">
					<dim>-1</dim>
					<dim>128</dim>
					<dim>48</dim>
					<dim>14</dim>
				</port>
				<port id="1" precision="FP32">
					<dim>64</dim>
					<dim>128</dim>
					<dim>1</dim>
					<dim>1</dim>
				</port>
			</input>
			<output>
				<port id="2" precision="FP32">
					<dim>-1</dim>
					<dim>64</dim>
					<dim>48</dim>
					<dim>14</dim>
				</port>
			</output>
		</layer>
		<layer id="98" name="Transpose_4790" type="Add" version="opset1">
			<data auto_broadcast="numpy" />
			<input>
				<port id="0" precision="FP32">
					<dim>-1</dim>
					<dim>64</dim>
					<dim>48</dim>
					<dim>14</dim>
				</port>
				<port id="1" precision="FP32">
					<dim>-1</dim>
					<dim>64</dim>
					<dim>48</dim>
					<dim>14</dim>
				</port>
			</input>
			<output>
				<port id="2" precision="FP32">
					<dim>-1</dim>
					<dim>64</dim>
					<dim>48</dim>
					<dim>14</dim>
				</port>
			</output>
		</layer>
		<layer id="99" name="Transpose_4397_compressed" type="Const" version="opset1">
			<data element_type="f16" shape="2, 64, 3, 3" offset="218836" size="2304" />
			<output>
				<port id="0" precision="FP16">
					<dim>2</dim>
					<dim>64</dim>
					<dim>3</dim>
					<dim>3</dim>
				</port>
			</output>
		</layer>
		<layer id="100" name="Transpose_4397" type="Convert" version="opset1">
			<data destination_type="f32" />
			<rt_info>
				<attribute name="decompression" version="0" />
			</rt_info>
			<input>
				<port id="0" precision="FP16">
					<dim>2</dim>
					<dim>64</dim>
					<dim>3</dim>
					<dim>3</dim>
				</port>
			</input>
			<output>
				<port id="1" precision="FP32">
					<dim>2</dim>
					<dim>64</dim>
					<dim>3</dim>
					<dim>3</dim>
				</port>
			</output>
		</layer>
		<layer id="101" name="Convolution_4398" type="Convolution" version="opset1">
			<data strides="1, 1" dilations="1, 1" pads_begin="0, 0" pads_end="0, 0" auto_pad="same_upper" />
			<input>
				<port id="0" precision="FP32">
					<dim>-1</dim>
					<dim>64</dim>
					<dim>48</dim>
					<dim>14</dim>
				</port>
				<port id="1" precision="FP32">
					<dim>2</dim>
					<dim>64</dim>
					<dim>3</dim>
					<dim>3</dim>
				</port>
			</input>
			<output>
				<port id="2" precision="FP32">
					<dim>-1</dim>
					<dim>2</dim>
					<dim>48</dim>
					<dim>14</dim>
				</port>
			</output>
		</layer>
		<layer id="102" name="Constant_4795" type="Const" version="opset1">
			<data element_type="i64" shape="4" offset="221140" size="32" />
			<output>
				<port id="0" precision="I64">
					<dim>4</dim>
				</port>
			</output>
		</layer>
		<layer id="103" name="custom_neural_receiver_2_1/conv2d_2_1/BiasAdd" type="Transpose" version="opset1">
			<input>
				<port id="0" precision="FP32">
					<dim>-1</dim>
					<dim>2</dim>
					<dim>48</dim>
					<dim>14</dim>
				</port>
				<port id="1" precision="I64">
					<dim>4</dim>
				</port>
			</input>
			<output>
				<port id="2" precision="FP32" names="Identity:0,custom_neural_receiver_2_1/conv2d_2_1/BiasAdd:0">
					<dim>-1</dim>
					<dim>48</dim>
					<dim>14</dim>
					<dim>2</dim>
				</port>
			</output>
		</layer>
		<layer id="104" name="Identity:0" type="Result" version="opset1" output_names="Identity:0,custom_neural_receiver_2_1/conv2d_2_1/BiasAdd:0">
			<input>
				<port id="0" precision="FP32">
					<dim>-1</dim>
					<dim>48</dim>
					<dim>14</dim>
					<dim>2</dim>
				</port>
			</input>
		</layer>
	</layers>
	<edges>
		<edge from-layer="0" from-port="0" to-layer="2" to-port="0" />
		<edge from-layer="1" from-port="0" to-layer="2" to-port="1" />
		<edge from-layer="2" from-port="2" to-layer="5" to-port="0" />
		<edge from-layer="3" from-port="0" to-layer="4" to-port="0" />
		<edge from-layer="4" from-port="1" to-layer="5" to-port="1" />
		<edge from-layer="5" from-port="2" to-layer="8" to-port="0" />
		<edge from-layer="6" from-port="0" to-layer="7" to-port="0" />
		<edge from-layer="7" from-port="1" to-layer="8" to-port="1" />
		<edge from-layer="8" from-port="2" to-layer="23" to-port="1" />
		<edge from-layer="8" from-port="2" to-layer="9" to-port="0" />
		<edge from-layer="9" from-port="1" to-layer="12" to-port="0" />
		<edge from-layer="10" from-port="0" to-layer="11" to-port="0" />
		<edge from-layer="11" from-port="1" to-layer="12" to-port="1" />
		<edge from-layer="12" from-port="2" to-layer="15" to-port="0" />
		<edge from-layer="13" from-port="0" to-layer="14" to-port="0" />
		<edge from-layer="14" from-port="1" to-layer="15" to-port="1" />
		<edge from-layer="15" from-port="2" to-layer="16" to-port="0" />
		<edge from-layer="16" from-port="1" to-layer="19" to-port="0" />
		<edge from-layer="17" from-port="0" to-layer="18" to-port="0" />
		<edge from-layer="18" from-port="1" to-layer="19" to-port="1" />
		<edge from-layer="19" from-port="2" to-layer="22" to-port="0" />
		<edge from-layer="20" from-port="0" to-layer="21" to-port="0" />
		<edge from-layer="21" from-port="1" to-layer="22" to-port="1" />
		<edge from-layer="22" from-port="2" to-layer="23" to-port="0" />
		<edge from-layer="23" from-port="2" to-layer="24" to-port="0" />
		<edge from-layer="23" from-port="2" to-layer="38" to-port="1" />
		<edge from-layer="24" from-port="1" to-layer="27" to-port="0" />
		<edge from-layer="25" from-port="0" to-layer="26" to-port="0" />
		<edge from-layer="26" from-port="1" to-layer="27" to-port="1" />
		<edge from-layer="27" from-port="2" to-layer="30" to-port="0" />
		<edge from-layer="28" from-port="0" to-layer="29" to-port="0" />
		<edge from-layer="29" from-port="1" to-layer="30" to-port="1" />
		<edge from-layer="30" from-port="2" to-layer="31" to-port="0" />
		<edge from-layer="31" from-port="1" to-layer="34" to-port="0" />
		<edge from-layer="32" from-port="0" to-layer="33" to-port="0" />
		<edge from-layer="33" from-port="1" to-layer="34" to-port="1" />
		<edge from-layer="34" from-port="2" to-layer="37" to-port="0" />
		<edge from-layer="35" from-port="0" to-layer="36" to-port="0" />
		<edge from-layer="36" from-port="1" to-layer="37" to-port="1" />
		<edge from-layer="37" from-port="2" to-layer="38" to-port="0" />
		<edge from-layer="38" from-port="2" to-layer="53" to-port="1" />
		<edge from-layer="38" from-port="2" to-layer="39" to-port="0" />
		<edge from-layer="39" from-port="1" to-layer="42" to-port="0" />
		<edge from-layer="40" from-port="0" to-layer="41" to-port="0" />
		<edge from-layer="41" from-port="1" to-layer="42" to-port="1" />
		<edge from-layer="42" from-port="2" to-layer="45" to-port="0" />
		<edge from-layer="43" from-port="0" to-layer="44" to-port="0" />
		<edge from-layer="44" from-port="1" to-layer="45" to-port="1" />
		<edge from-layer="45" from-port="2" to-layer="46" to-port="0" />
		<edge from-layer="46" from-port="1" to-layer="49" to-port="0" />
		<edge from-layer="47" from-port="0" to-layer="48" to-port="0" />
		<edge from-layer="48" from-port="1" to-layer="49" to-port="1" />
		<edge from-layer="49" from-port="2" to-layer="52" to-port="0" />
		<edge from-layer="50" from-port="0" to-layer="51" to-port="0" />
		<edge from-layer="51" from-port="1" to-layer="52" to-port="1" />
		<edge from-layer="52" from-port="2" to-layer="53" to-port="0" />
		<edge from-layer="53" from-port="2" to-layer="54" to-port="0" />
		<edge from-layer="53" from-port="2" to-layer="68" to-port="1" />
		<edge from-layer="54" from-port="1" to-layer="57" to-port="0" />
		<edge from-layer="55" from-port="0" to-layer="56" to-port="0" />
		<edge from-layer="56" from-port="1" to-layer="57" to-port="1" />
		<edge from-layer="57" from-port="2" to-layer="60" to-port="0" />
		<edge from-layer="58" from-port="0" to-layer="59" to-port="0" />
		<edge from-layer="59" from-port="1" to-layer="60" to-port="1" />
		<edge from-layer="60" from-port="2" to-layer="61" to-port="0" />
		<edge from-layer="61" from-port="1" to-layer="64" to-port="0" />
		<edge from-layer="62" from-port="0" to-layer="63" to-port="0" />
		<edge from-layer="63" from-port="1" to-layer="64" to-port="1" />
		<edge from-layer="64" from-port="2" to-layer="67" to-port="0" />
		<edge from-layer="65" from-port="0" to-layer="66" to-port="0" />
		<edge from-layer="66" from-port="1" to-layer="67" to-port="1" />
		<edge from-layer="67" from-port="2" to-layer="68" to-port="0" />
		<edge from-layer="68" from-port="2" to-layer="69" to-port="0" />
		<edge from-layer="68" from-port="2" to-layer="83" to-port="1" />
		<edge from-layer="69" from-port="1" to-layer="72" to-port="0" />
		<edge from-layer="70" from-port="0" to-layer="71" to-port="0" />
		<edge from-layer="71" from-port="1" to-layer="72" to-port="1" />
		<edge from-layer="72" from-port="2" to-layer="75" to-port="0" />
		<edge from-layer="73" from-port="0" to-layer="74" to-port="0" />
		<edge from-layer="74" from-port="1" to-layer="75" to-port="1" />
		<edge from-layer="75" from-port="2" to-layer="76" to-port="0" />
		<edge from-layer="76" from-port="1" to-layer="79" to-port="0" />
		<edge from-layer="77" from-port="0" to-layer="78" to-port="0" />
		<edge from-layer="78" from-port="1" to-layer="79" to-port="1" />
		<edge from-layer="79" from-port="2" to-layer="82" to-port="0" />
		<edge from-layer="80" from-port="0" to-layer="81" to-port="0" />
		<edge from-layer="81" from-port="1" to-layer="82" to-port="1" />
		<edge from-layer="82" from-port="2" to-layer="83" to-port="0" />
		<edge from-layer="83" from-port="2" to-layer="84" to-port="0" />
		<edge from-layer="83" from-port="2" to-layer="98" to-port="1" />
		<edge from-layer="84" from-port="1" to-layer="87" to-port="0" />
		<edge from-layer="85" from-port="0" to-layer="86" to-port="0" />
		<edge from-layer="86" from-port="1" to-layer="87" to-port="1" />
		<edge from-layer="87" from-port="2" to-layer="90" to-port="0" />
		<edge from-layer="88" from-port="0" to-layer="89" to-port="0" />
		<edge from-layer="89" from-port="1" to-layer="90" to-port="1" />
		<edge from-layer="90" from-port="2" to-layer="91" to-port="0" />
		<edge from-layer="91" from-port="1" to-layer="94" to-port="0" />
		<edge from-layer="92" from-port="0" to-layer="93" to-port="0" />
		<edge from-layer="93" from-port="1" to-layer="94" to-port="1" />
		<edge from-layer="94" from-port="2" to-layer="97" to-port="0" />
		<edge from-layer="95" from-port="0" to-layer="96" to-port="0" />
		<edge from-layer="96" from-port="1" to-layer="97" to-port="1" />
		<edge from-layer="97" from-port="2" to-layer="98" to-port="0" />
		<edge from-layer="98" from-port="2" to-layer="101" to-port="0" />
		<edge from-layer="99" from-port="0" to-layer="100" to-port="0" />
		<edge from-layer="100" from-port="1" to-layer="101" to-port="1" />
		<edge from-layer="101" from-port="2" to-layer="103" to-port="0" />
		<edge from-layer="102" from-port="0" to-layer="103" to-port="1" />
		<edge from-layer="103" from-port="2" to-layer="104" to-port="0" />
	</edges>
	<rt_info>
		<Runtime_version value="2025.1.0-18503-6fec06580ab-releases/2025/1" />
		<conversion_parameters>
			<framework value="tf" />
			<is_python_object value="True" />
		</conversion_parameters>
	</rt_info>
</net>
